{"name":"whatsthefont","modelTopology":{"class_name":"Sequential","config":[{"class_name":"Conv2D","config":{"filters":120,"kernel_initializer":{"class_name":"VarianceScaling","config":{"scale":1,"mode":null,"distribution":null,"seed":null}},"kernel_regularizer":null,"kernel_constraint":null,"kernel_size":[5,5],"strides":[1,1],"padding":"valid","data_format":"channels_last","dilation_rate":[1,1],"activation":"relu","use_bias":true,"bias_initializer":{"class_name":"Zeros","config":{}},"bias_regularizer":null,"activity_regularizer":null,"bias_constraint":null,"name":"conv2d_Conv2D1","trainable":true,"batch_input_shape":[null,32,32,1],"dtype":"float32"}},{"class_name":"MaxPooling2D","config":{"pool_size":[2,2],"padding":"valid","strides":[2,2],"data_format":"channels_last","name":"max_pooling2d_MaxPooling2D1","trainable":true}},{"class_name":"Conv2D","config":{"filters":200,"kernel_initializer":{"class_name":"VarianceScaling","config":{"scale":1,"mode":null,"distribution":null,"seed":null}},"kernel_regularizer":null,"kernel_constraint":null,"kernel_size":[5,5],"strides":[1,1],"padding":"valid","data_format":"channels_last","dilation_rate":[1,1],"activation":"relu","use_bias":true,"bias_initializer":{"class_name":"Zeros","config":{}},"bias_regularizer":null,"activity_regularizer":null,"bias_constraint":null,"name":"conv2d_Conv2D2","trainable":true}},{"class_name":"MaxPooling2D","config":{"pool_size":[10,10],"padding":"valid","strides":[1,1],"data_format":"channels_last","name":"max_pooling2d_MaxPooling2D2","trainable":true}},{"class_name":"Flatten","config":{"name":"flatten_Flatten1","trainable":true}},{"class_name":"Dense","config":{"units":52,"activation":"softmax","use_bias":true,"kernel_initializer":{"class_name":"VarianceScaling","config":{"scale":1,"mode":null,"distribution":null,"seed":null}},"bias_initializer":{"class_name":"Zeros","config":{}},"kernel_regularizer":null,"bias_regularizer":null,"activity_regularizer":null,"kernel_constraint":null,"bias_constraint":null,"name":"dense_Dense1","trainable":true}}],"keras_version":"tfjs-layers 0.8.0","backend":"tensor_flow.js"},"weightSpecs":[{"name":"conv2d_Conv2D1/kernel","shape":[5,5,1,120],"dtype":"float32"},{"name":"conv2d_Conv2D1/bias","shape":[120],"dtype":"float32"},{"name":"conv2d_Conv2D2/kernel","shape":[5,5,120,200],"dtype":"float32"},{"name":"conv2d_Conv2D2/bias","shape":[200],"dtype":"float32"},{"name":"dense_Dense1/kernel","shape":[200,52],"dtype":"float32"},{"name":"dense_Dense1/bias","shape":[52],"dtype":"float32"}],"weightData":"…"}